…
782/782 [==============================] - 25s 32ms/step - loss: 0.8897 - accuracy: 0.6882 - val_loss: 1.0767 - val_accuracy: 0.6290
Epoch 6/10













782/782 [==============================] - 28s 35ms/step - loss: 0.8205 - accuracy: 0.7122 - val_loss: 1.1740 - val_accuracy: 0.6039
Epoch 7/10











782/782 [==============================] - 24s 31ms/step - loss: 0.7586 - accuracy: 0.7379 - val_loss: 1.1384 - val_accuracy: 0.6211
Model: "sequential_1"
_________________________________________________________________
 Layer (type)                Output Shape              Param #
=================================================================
 conv2d_2 (Conv2D)           (None, 30, 30, 32)        896
 conv2d_3 (Conv2D)           (None, 28, 28, 32)        9248
 max_pooling2d_1 (MaxPooling  (None, 14, 14, 32)       0
 2D)
 flatten_1 (Flatten)         (None, 6272)              0
 dense_2 (Dense)             (None, 64)                401472
 dense_3 (Dense)             (None, 10)                650
=================================================================
Total params: 412,266
Trainable params: 412,266
Non-trainable params: 0
_________________________________________________________________
313/313 [==============================] - 2s 5ms/step
313/313 [==============================] - 2s 5ms/step
313/313 [==============================] - 2s 5ms/step
149/313 [=============>................] - ETA: 0s
…
