…
1250/1250 [==============================] - 49s 39ms/step - loss: 0.7389 - accuracy: 0.7419 - val_loss: 1.0170 - val_accuracy: 0.6640
Epoch 6/10
























1250/1250 [==============================] - 50s 40ms/step - loss: 0.6501 - accuracy: 0.7721 - val_loss: 1.0212 - val_accuracy: 0.6642
Epoch 7/10
























1250/1250 [==============================] - 50s 40ms/step - loss: 0.5705 - accuracy: 0.8011 - val_loss: 1.0762 - val_accuracy: 0.6670
Model: "sequential"
_________________________________________________________________
 Layer (type)                Output Shape              Param #
=================================================================
 conv2d (Conv2D)             (None, 30, 30, 32)        896
 conv2d_1 (Conv2D)           (None, 28, 28, 32)        9248
 conv2d_2 (Conv2D)           (None, 26, 26, 32)        9248
 max_pooling2d (MaxPooling2D  (None, 13, 13, 32)       0
 )
 flatten (Flatten)           (None, 5408)              0
 dense (Dense)               (None, 64)                346176
 dense_1 (Dense)             (None, 10)                650
=================================================================
Total params: 366,218
Trainable params: 366,218
Non-trainable params: 0
_________________________________________________________________
Epoch 1/10


























1250/1250 [==============================] - 55s 43ms/step - loss: 1.4925 - accuracy: 0.4591 - val_loss: 1.1901 - val_accuracy: 0.5758
Epoch 2/10













…
