…
782/782 [==============================] - 24s 31ms/step - loss: 0.8538 - accuracy: 0.7018 - val_loss: 1.1063 - val_accuracy: 0.6242
Epoch 6/10











782/782 [==============================] - 25s 32ms/step - loss: 0.7730 - accuracy: 0.7304 - val_loss: 1.1431 - val_accuracy: 0.6174
Epoch 7/10










782/782 [==============================] - 25s 31ms/step - loss: 0.7018 - accuracy: 0.7548 - val_loss: 1.1485 - val_accuracy: 0.6267
Model: "sequential"
_________________________________________________________________
 Layer (type)                Output Shape              Param #
=================================================================
 conv2d (Conv2D)             (None, 30, 30, 32)        896
 conv2d_1 (Conv2D)           (None, 28, 28, 32)        9248
 max_pooling2d (MaxPooling2D  (None, 14, 14, 32)       0
 )
 flatten (Flatten)           (None, 6272)              0
 dense (Dense)               (None, 64)                401472
 dense_1 (Dense)             (None, 10)                650
=================================================================
Total params: 412,266
Trainable params: 412,266
Non-trainable params: 0
_________________________________________________________________
Epoch 1/10
352/782 [============>.................] - ETA: 11s - loss: 1.8466 - accuracy: 0.3132
/home/cipher73/Downloads/Honours/ACML/2023/Labs/ACML-CNN-GROUP/kfold_cifar10.py:115: MatplotlibDeprecationWarning: The close_event function was deprecated in Matplotlib 3.6 and will be removed two minor releases later. Use callbacks.process('close_event', CloseEvent(...)) instead.
…
