…
1250/1250 [==============================] - 35s 28ms/step - loss: 0.7431 - accuracy: 0.7388 - val_loss: 0.9744 - val_accuracy: 0.6673
Epoch 6/10


















1250/1250 [==============================] - 39s 31ms/step - loss: 0.6616 - accuracy: 0.7670 - val_loss: 1.0356 - val_accuracy: 0.6570
Epoch 7/10


















1250/1250 [==============================] - 38s 31ms/step - loss: 0.5829 - accuracy: 0.7933 - val_loss: 1.0590 - val_accuracy: 0.6599
Model: "sequential"
_________________________________________________________________
 Layer (type)                Output Shape              Param #
=================================================================
 conv2d (Conv2D)             (None, 30, 30, 32)        896
 conv2d_1 (Conv2D)           (None, 28, 28, 32)        9248
 max_pooling2d (MaxPooling2D  (None, 14, 14, 32)       0
 )
 flatten (Flatten)           (None, 6272)              0
 dense (Dense)               (None, 64)                401472
 dense_1 (Dense)             (None, 10)                650
=================================================================
Total params: 412,266
Trainable params: 412,266
Non-trainable params: 0
_________________________________________________________________
Epoch 1/10
















1250/1250 [==============================] - 35s 28ms/step - loss: 1.4293 - accuracy: 0.4867 - val_loss: 1.1589 - val_accuracy: 0.5953
Epoch 2/10

















1250/1250 [==============================] - 36s 29ms/step - loss: 1.0539 - accuracy: 0.6289 - val_loss: 1.0211 - val_accuracy: 0.6448
…
