…
782/782 [==============================] - 25s 32ms/step - loss: 0.8116 - accuracy: 0.7154 - val_loss: 1.0912 - val_accuracy: 0.6291
Epoch 6/10











782/782 [==============================] - 27s 35ms/step - loss: 0.7347 - accuracy: 0.7444 - val_loss: 1.1119 - val_accuracy: 0.6342
Epoch 7/10











782/782 [==============================] - 24s 31ms/step - loss: 0.6486 - accuracy: 0.7761 - val_loss: 1.1748 - val_accuracy: 0.6222
Model: "sequential"
_________________________________________________________________
 Layer (type)                Output Shape              Param #
=================================================================
 conv2d (Conv2D)             (None, 30, 30, 32)        896
 conv2d_1 (Conv2D)           (None, 28, 28, 32)        9248
 max_pooling2d (MaxPooling2D  (None, 14, 14, 32)       0
 )
 flatten (Flatten)           (None, 6272)              0
 dense (Dense)               (None, 64)                401472
 dense_1 (Dense)             (None, 10)                650
=================================================================
Total params: 412,266
Trainable params: 412,266
Non-trainable params: 0
_________________________________________________________________
Epoch 1/10










782/782 [==============================] - 24s 30ms/step - loss: 1.5439 - accuracy: 0.4497 - val_loss: 1.2589 - val_accuracy: 0.5514
Epoch 2/10











782/782 [==============================] - 24s 31ms/step - loss: 1.1298 - accuracy: 0.6052 - val_loss: 1.1164 - val_accuracy: 0.6050
…
